torch_nn_mpc-rocket-v3.pth (torch, 148766 bytes, 6 tensors)

fc1.weight f4 [128, 16]
-0.0046491674 0.0017078473 0.005920987 -0.0033627062 0.006606555 -0.0068066055 0.0023983573 0.0018433513
-0.0021134315 -0.0021652041 -0.0053902045 -0.0013810382 -0.0025637732 -0.0016718312 0.0057201507 0.0020762002
-0.0068442617 -0.0041128746 0.005493492 -8.899518e-05 -0.0027215898 0.0038810272 0.0064200656 -0.0048460644
0.006832277 -0.0018282218 0.0008782872 -0.005552487 -0.0058957236 -0.005154762 -0.005059241 -0.0066989167
-0.0023095894 0.0007293364 0.004843656 0.0029993714 -0.0061177355 0.005316383 -0.0015494674 -0.006771703
0.006129678 -0.005110361 0.0058941916 0.0044293837 -0.006746406 -0.0026767752 0.004641789 0.00048223455
-0.07851176 6.811053 -3.8280995 0.5409135 0.7345761 -1.0886414 2.1730332 -0.014393318
-0.01776751 -0.032465845 0.18663538 0.29018912 0.29749846 -0.010040687 1.6225272 1.4460349
0.0019924738 0.0026978871 -0.0018423757 -0.003659173 -2.9690878e-05 0.006569399 0.0042292657 -0.0040302207
-0.0037030736 -0.003469677 0.0018109357 0.002046317 -0.0012074684 -0.005098422 0.006042195 0.0033504218
0.0023232065 -0.046243437 -0.09376134 0.0061935578 -0.08357491 -0.04074088 0.014231111 0.0008404072
-0.0003862337 -0.0039523486 0.0031812764 0.009956623 -0.006392088 -0.00038638795 0.36293873 0.3075265
-0.0058643627 -0.00048135867 -0.0048240246 0.0018341398 -0.003577723 0.0023183653 0.0028982265 -0.003951501
0.005487008 -0.0039552036 0.0066643707 0.0032462147 -0.006308659 -0.0034000846 0.00093750726 0.0054796976
-0.013619271 -0.010653621 -0.17680643 0.00070278987 0.080007024 -0.07251784 -0.021528408 0.00012052857
-0.00081307755 0.00067577115 0.010200938 -0.015208767 -0.011040414 -0.0009442735 0.40634692 -0.20101556
0.87427735 1.0481871 -1.2834057 0.20878507 0.61912596 -0.42409015 0.0055124396 0.1467919
0.2513519 0.114381336 0.15995665 0.043167803 -0.031401053 -0.021605501 -1.0518467 -4.943653
-0.002607621 0.026234774 -0.03035275 0.011350876 0.120157115 -0.0334273 0.001838887 -0.0030509338
0.0006440213 -0.002197767 -0.013807946 -0.006488502 -0.0009589597 -0.00053459365 -0.051765848 -0.36063644
0.0043033343 -0.0046160524 -0.0009547365 -0.0032563803 0.001716481 0.0007981176 0.00011418855 0.0018313855
0.00039323565 0.0031587498 -0.006058868 0.004030217 0.0057768216 -0.0025156785 -0.00508331 0.0036352242
-0.0089442255 -0.0067688115 0.022216756 0.013927552 -0.04638635 0.011998643 -0.010039145 -0.0022871243
6.257779e-05 -0.004556341 -0.0034040816 -0.00070908334 0.02994858 -0.00045495012 -0.0013996947 0.18143131
-0.026872307 -0.09643357 0.20206216 -0.04864517 0.07228498 -0.00978776 -0.025742078 0.001070633
7.775665e-05 0.005785713 0.014349261 0.011738296 0.028514639 -0.0011069637 -0.51453245 -0.36196223
1.166353 -2.0366697 4.135998 1.3013707 -1.4429384 1.7555138 -3.9865718 0.030017585
0.015183231 0.19134814 0.21693747 0.15355024 0.812883 -0.007408027 14.262453 1.7832785
-0.0012380708 -0.24948826 0.07070766 -0.0017288912 -0.03452861 0.03291649 -0.008136846 0.009928992
0.012162185 -0.033955578 0.007070969 0.01389938 0.0036919569 -0.00011608459 -0.13763827 -0.5303316
0.0008072228 0.122260466 0.055717453 -0.016156811 -0.020857004 0.016910605 -0.012726245 -0.0027961887
0.0020688733 0.0008784166 0.0051207594 0.0033699851 -0.011094178 -0.0008211584 -0.13556534 0.50401855
00000000: 0b58 98bb d9d9 df3a d704 c23b d960 5cbb
00000010: cd7b d83b f209 dfbb c22d 1d3b 9b9c f13a
00000020: 7f81 0abb 19e6 0dbb 50a0 b0bb f403 b5ba
00000030: fa04 28bb 5921 dbba 1a70 bb3b dc10 083b
00000040: d445 e0bb 4bc5 86bb c002 b43b eca2 bab8
00000050: b35c 32bb d558 7e3b 6a5f d23b bccb 9ebb
00000060: 4be1 df3b f2a0 efba db3c 663a a3f1 b5bb
00000070: ea30 c1bb 47e9 a8bb fdc7 a5bb 9682 dbbb
00000080: 7b5c 17bb f030 3f3a 88b7 9e3b 1a91 443b
00000090: 4977 c8bb 0e35 ae3b 8017 cbba 29e5 ddbb
000000a0: 77db c83b d174 a7bb 1024 c13b 5d24 913b
000000b0: f510 ddbb d66c 2fbb 261a 983b 6dd4 fc39
000000c0: c6ca a0bd 25f4 d940 95ff 74c0 4f79 0a3f
000000d0: 2e0d 3c3f 9a58 8bbf fa12 0b40 f4d1 6bbc
000000e0: 2b8d 91bc e8fa 04bd 581d 3f3e ab93 943e
000000f0: b851 983e b281 24bc f9ae cf3f ac17 b93f
00000100: 2a94 023b 09cf 303b df7b f1ba bcce 6fbb
00000110: ad10 f9b7 1d44 d73b a795 8a3b f10f 84bb
00000120: 44af 72bb 8563 63bb eb5c ed3a 811b 063b
00000130: eb43 9eba aa10 a7bb 9bfd c53b c092 5b3b
00000140: f040 183b c269 3dbd f205 c0bd 54f3 ca3b
00000150: 5329 abbd e9df 26bd 9b29 693c c64e 5c3a
00000160: 697f cab9 b482 81bb f67c 503b 1b21 233c
00000170: b874 d1bb 1d94 cab9 1bd3 b93e 1d74 9d3e
00000180: d729 c0bb de5e fcb9 da12 9ebb 8567 f03a
00000190: 3b78 6abb b7ef 173b 2cf0 3d3b 987b 81bb
000001a0: 5ccc b33b a79a 81bb cb60 da3b 72be 543b
000001b0: deb8 cebb f4d3 5ebb 0cc3 753a 098f b33b
000001c0: 5d23 5fbc 868c 2ebc bf0c 35be 6e3b 383a
000001d0: b9da a33d 3c84 94bd 585c b0bc 49c4 fc38
000001e0: b624 55ba 3c26 313a d621 273c 312e 79bc
000001f0: dae2 34bc 1f89 77ba b40c d03e 06d7 4dbe
00000200: a4d0 5f3f ff2a 863f a346 a4bf c1cb 553e
00000210: 0a7f 1e3f 5822 d9be b2a1 b43b 9e50 163e
00000220: 32b1 803e c340 ea3d adcb 233e b9d0 303d
00000230: 649e 00bd 05fe b0bc eaa2 86bf 6832 9ec0
00000240: 9fe4 2abb 4fea d63c 55a6 f8bc 06f9 393c
00000250: ef14 f63d 11eb 08bd cf06 f13a 2df2 47bb
00000260: 8ad3 283a 6908 10bb b93a 62bc 809d d4bb
00000270: b262 7bba f923 0cba 6d08 54bd 57a5 b8be
00000280: fc02 8d3b 4142 97bb 4847 7aba ff68 55bb
00000290: 8cfb e03a c438 513a 8378 ef38 1a0b f03a
000002a0: 322b ce39 0703 4f3b 7889 c6bb e90f 843b
000002b0: 7e4b bd3b 15de 24bb e591 a6bb f13c 6e3b
000002c0: cd8a 12bc e8cc ddbb eaff b53c 6330 643c
000002d0: 9dff 3dbd f595 443c 3a7b 24bc 94e3 15bb
000002e0: 323c 8338 5c4d 95bb 0317 5fbb c7e1 39ba
000002f0: b956 f53c 5f86 eeb9 f675 b7ba 21c9 393e
00000300: 5023 dcbc f77e c5bd 62e9 4e3e 2840 47bd
00000310: 260a 943d d75c 20bc 0de1 d2bc 7b54 8c3a
00000320: 4911 a338 1496 bd3b 2a19 6b3c fb51 403c
00000330: 8897 e93c 8a17 91ba 66b8 03bf 1d53 b9be
00000340: 0e4b 953f cc58 02c0 185a 8440 5193 a63f
00000350: 35b2 b8bf adb4 e03f fe23 7fc0 70e7 f53c
00000360: 16c3 783c c4f0 433e db24 5e3e 463c 1d3e
00000370: 1a19 503f 09bf f2bb 0233 6441 7842 e43f
00000380: c346 a2ba da79 7fbe 2dcf 903d f69b e2ba
00000390: df6d 0dbd 71d3 063d 6850 05bc 36ad 223c
000003a0: e743 473c 0115 0bbd 96b3 e73b 3aba 633c
000003b0: c2f4 713b 7172 f3b8 0cf1 0cbe d0c3 07bf
000003c0: ce9b 533a b263 fa3d fc37 643d 4a5b 84bc
000003d0: 4fdc aabc 1c88 8a3c be81 50bc 4340 37bb
000003e0: ef95 073b 8a45 663a 0bcc a73b f8da 5c3b
000003f0: 5bc4 35bc 0243 57ba a4d1 0abe 5c07 013f

fc1.bias f4 [128]
-0.001909821 0.0015739358 0.0005544228 -0.05880404 -0.0017217917 0.0047892136 -0.0014064781 -0.012306683
0.78385353 -0.006235699 -0.0062792124 -0.010448579 -0.024265325 1.1054317 -0.008489466 -0.0037723526
-0.12839298 0.00030630236 -0.00095127797 -0.047389936 0.005231536 -0.0022192756 -0.1538013 -0.0035531847
-0.0029378699 -0.0050963727 -0.006850468 0.004578985 -0.005278442 -0.0182265 0.0010274567 -0.0057477853
-0.27005962 -0.017357249 -0.005155577 0.0040723863 -0.0089628985 -0.0005154872 -0.0022665388 0.2462931
0.0037582535 -0.68972296 -0.6060815 -0.0074163456 -0.1054937 0.005442744 0.09432623 0.0018835297
-0.018226095 -1.2860897 -0.006566037 -0.0036803063 -0.030007483 1.281401 -0.3259057 0.002052757
0.00046522976 0.0063190223 -0.006467058 0.15189496 -0.002414658 0.0027723955 0.0012454069 0.03268127
-0.9319031 0.0021411309 0.004644181 -0.004790258 0.003878165 -0.0018963701 -0.010104837 -0.0045705065
0.0005795553 0.0015926315 0.86054784 0.0017368001 -0.0035086956 0.2415616 -0.00042794136 -0.018176554
1.15103 -0.0048611853 -0.0776269 -0.26497996 -1.0195106 -0.014714196 -0.0037100355 1.4056606
0.26132876 0.2581244 -0.01304111 0.7860378 -0.008136739 0.7883922 -0.005986503 0.3800668
-0.005553597 0.0034434337 0.005822826 -0.20335463 0.005769863 0.73464006 0.0006140643 0.0030968038
-0.0030621768 0.004378813 1.3710433 -0.0029118415 0.006629079 -0.001164298 -0.002035673 -0.098352574
0.16001858 -0.028681304 0.0009110731 0.55895627 -0.009936237 -0.0006018605 0.0012734375 -0.004437555
-0.0068413243 -0.006532194 0.0021880947 -0.014784628 -0.0047278884 -0.0009786908 0.0064712134 -0.040609907
00000000: f552 faba 864c ce3a af56 113a 81dc 70bd
00000010: bead e1ba d6ee 9c3b 9359 b8ba f8a1 49bc
00000020: a0aa 483f d654 ccbb dac1 cdbb 8430 2bbc
00000030: 13c8 c6bc c97e 8d3f 6717 0bbc 9339 77bb
00000040: 7379 03be 3597 a039 2f5f 79ba f31b 42bd
00000050: 4e6d ab3b 4471 11bb 177e 1dbe 8cdc 68bb
00000060: 4789 40bb 79ff a6bb e479 e0bb 4f0b 963b
00000070: c8f6 acbb be4f 95bc baab 863a eb57 bcbb
00000080: 4145 8abe ca30 8ebc 1df0 a8bb a771 853b
00000090: 1fd9 12bc c321 07ba 368a 14bb 4234 7c3e
000000a0: 084d 763b af91 30bf 2828 1bbf d104 f3bb
000000b0: 150d d8bd 0c59 b23b 1c2e c13d c5e0 f63a
000000c0: e44e 95bc 969e a4bf e927 d7bb 4b31 71bb
000000d0: 41d2 f5bc f304 a43f 1ddd a6be 8c87 063b
000000e0: 15ea f339 cd0f cf3b 9de9 d3bb 5a8a 1b3e
000000f0: 3d3f 1ebb 14b1 353b ec3c a33a ccdc 053d
00000100: 3491 6ebf 3752 0c3b 372e 983b 99f7 9cbb
00000110: d028 7e3b 9f8f f8ba c28e 25bc 30c4 95bb
00000120: 4ced 173a d8bf d03a dd4c 5c3f 57a5 e33a
00000130: 25f2 65bb ed5b 773e 515d e0b9 ffe6 94bc
00000140: f354 933f 944a 9fbb dafa 9ebd 74ab 87be
00000150: 537f 82bf d013 71bc 1124 73bb b0ec b33f
00000160: e2cc 853e e228 843e 61aa 55bc c639 493f
00000170: f54f 05bc 12d4 493f 6d2a c4bb 1e98 c23e
00000180: f3fa b5bb 3bab 613b 68cd be3b 323c 50be
00000190: 1e11 bd3b 5f11 3c3f 28f9 203a bff3 4a3b
000001a0: cdae 48bb 257c 8f3b 597e af3f 98d4 3ebb
000001b0: bf38 d93b 5c9b 98ba ed68 05bb 136d c9bd
000001c0: e9db 233e 0ef5 eabc 15d5 6e3a c217 0f3f
000001d0: 99cb 22bc 2dc6 1dba 79e9 a63a e968 91bb
000001e0: 302d e0bb 040c d6bb 2366 0f3b 393b 72bc
000001f0: 67ec 9abb 6a47 80ba 790c d43b 9356 26bd

fc2.weight f4 [256, 128]
-0.001273191 0.0011221558 -0.0020153874 -0.017451238 0.001421514 -0.0005091177 -0.0013091135 -0.0029060405
-0.07979106 0.00011529908 0.0016731102 0.0012339554 -0.0099077625 -0.032758616 -5.8602363e-05 0.0011687629
-0.1164128 -0.0007702773 -0.00025518032 0.096903585 0.0016180648 0.0010226668 -0.51821387 -0.00058975705
0.001164722 0.0019371017 0.0016738523 -1.8874049e-05 0.008020582 -0.00022166788 0.0022531343 -0.0007261378
0.23224287 0.003780564 -0.0011544664 0.00029797872 0.0020553207 -0.00045870876 -0.0032913121 0.0025974892
0.0011160085 -0.15776907 -0.21518363 0.00068992603 -0.021033388 0.0009839156 -0.21186301 0.00057735614
-0.03438824 0.042288035 0.00024998168 -0.001998399 0.011749651 0.055621803 -0.108573906 0.0023817094
-0.0009858034 0.0013887703 -0.00017676309 0.11459109 -0.0009748393 -0.0015651335 0.0002683045 0.01091129
0.14237064 0.001984054 -0.0012610113 0.0032673646 0.0012766584 -0.00047183587 -0.0060006627 -0.0012457849
0.0018874366 0.0016583849 0.053065736 -0.0015781486 0.00096589053 -0.020243516 -0.0011968835 -0.009766642
-0.0846251 -0.000107612475 -0.017643845 -0.014421877 -0.20340516 0.01013345 0.0009061857 -0.14301544
0.091650024 0.25179094 -0.0005972673 -0.09910598 0.004167155 -0.013725038 0.0004900705 -0.23071931
0.0010328192 -0.0011460626 -0.0003300972 0.035607975 0.0018664736 0.020357875 -0.0015261059 0.0035727192
0.001280515 -0.0005938647 0.02850086 -0.00045700828 0.0009914713 -0.0024944348 -0.001050333 0.03451289
0.098970935 -0.0017065802 -0.0018504915 -0.048779067 0.0022097055 0.0019421421 -0.0023779115 0.0006746627
-0.0023242675 0.0011195964 -0.0019882757 0.0018941293 -0.0013473283 -0.00041809888 0.0015611727 -0.0034173576
-0.0011964638 -0.00027694358 0.0015676423 -0.0017926855 0.0006108316 0.0004820509 0.00015972323 -0.001343661
-0.00089810503 0.0021149614 0.00077824574 0.0005060805 -0.001747517 -0.0027327226 0.0007118289 -0.0017625756
-0.001911996 9.713245e-05 -0.0013816202 -0.0004561546 -0.0009765946 -0.00037585638 -0.002117921 -0.0008481629
-0.0003523778 -1.3522778e-05 -0.00034501916 -0.0008694796 -0.002426305 -0.00022331707 0.00052114186 -0.00034561995
-0.0015759362 0.001998856 0.0018968894 0.0023687563 -0.001774798 0.0011077442 -0.0028557891 0.0009636288
-0.00016629513 -0.002644018 -0.00206693 0.0008924279 -0.00016907885 -0.00027483475 -0.0024242066 0.0015761307
-0.0022849338 -0.0005430576 0.00076061406 -0.0016598225 -0.0010422468 -0.0012090072 -0.0015781384 0.0022009888
-0.001273116 0.0014726426 -0.0010749813 -0.0028532043 -0.0015079702 -0.0009081529 0.0022347572 7.130371e-05
-0.0022940037 -0.0014584569 0.0005313438 0.0009952479 0.00091501855 -0.0013717387 0.0018939166 0.0015573495
-0.0013965704 0.0005442136 -0.0027477716 -0.001779521 -0.00060093676 -0.0012475891 -0.00052929495 0.0017868625
-0.00045177332 2.3807568e-05 -0.0013132467 0.002303045 -0.0012954723 0.000231786 0.0014975719 -0.0010920947
0.00044654755 0.0016091145 0.0013053957 -0.0018193192 -0.00049550645 -0.0021620193 0.00030384053 -0.0032288819
-0.000120602104 0.0019315607 -4.119815e-05 1.4378456e-05 0.0014367875 -0.0015976108 -0.00075041817 0.0020119525
0.0010069094 0.00060001714 -0.002686294 2.2732453e-05 0.00042654542 -0.0010262927 -0.0005716531 -0.0027318804
-0.0006075654 0.00074078585 -0.00046441832 0.002054441 -0.0005920295 0.0023450463 4.882469e-05 -0.0004942231
-2.5226274e-05 -0.0005163025 0.001138671 0.002158718 0.0009340758 0.001392554 0.0022956503 0.000269154
00000000: 33e1 a6ba 4d15 933a 9714 04bb e6f5 8ebc
00000010: 1852 ba3a 4f76 05ba 8f96 abba 4573 3ebb
00000020: 7f69 a3bd b9cc f138 434c db3a acbc a13a
00000030: 2b54 22bc e62d 06bd cfcb 75b8 2d31 993a
00000040: d669 eebd 6fec 49ba b9c9 85b9 6375 c63d
00000050: 3f15 d43a 010b 863a aaa9 04bf ed99 1aba
00000060: 96a9 983a 59e6 fd3a 2a65 db3a b653 9eb7
00000070: c268 033c 856f 68b9 52a9 133b 485a 3eba
00000080: 13d1 6d3e 57c3 773b 7751 97ba 073a 9c39
00000090: 8fb2 063b d97e f0b9 0eb3 57bb a33a 2a3b
000000a0: 0847 923a 378e 21be 1959 5cbe 27dc 343a
000000b0: 364e acbc bbf6 803a 9ef2 58be b759 173a
000000c0: afda 0cbd 3836 2d3d f90f 8339 92f7 02bb
000000d0: 9c81 403c b0d3 633d ff5b debd 7416 1c3b
000000e0: 1336 81ba 6607 b63a 7b59 39b9 bcae ea3d
000000f0: 5c8c 7fba 2a25 cdba 38ab 8c39 44c5 323c
00000100: 9cc9 113e e706 023b 8548 a5ba 4821 563b
00000110: 8c55 a73a bd60 f7b9 35a1 c4bb 9b49 a3ba
00000120: dd63 f73a 2a5e d93a 755b 593d e1d9 ceba
00000130: d133 7d3a bbd5 a5bc bfe0 9cba 4404 20bc
00000140: ed4f adbd 02ae e1b8 d389 90bc bd49 6cbc
00000150: 7149 50be c506 263c 188d 6d3a a472 12be
00000160: 02b3 bb3d beea 803e ee91 1cba 13f8 cabd
00000170: a18c 883b fbde 60bc 1378 003a af41 6cbe
00000180: a95f 873a 7b37 96ba e510 adb9 abd9 113d
00000190: 76a4 f43a 8fc5 a63c 9e07 c8ba 4824 6a3b
000001a0: f4d6 a73a 96ad 1bba a37a e93c 9d9a efb9
000001b0: 42f4 813a ac79 23bb 54ab 89ba 635d 0d3d
000001c0: 46b1 ca3d 54af dfba 318c f2ba 8fcc 47bd
000001d0: b5d0 103b 7a8f fe3a bcd6 1bbb d9db 303a
000001e0: bd52 18bb 6cbf 923a bb4d 02bb 6f44 f83a
000001f0: d698 b0ba 4834 dbb9 43a0 cc3a bff5 5fbb
00000200: aad2 9cba bd32 91b9 5979 cd3a 8bf8 eaba
00000210: 3720 203a c7bb fc39 617b 2739 c81d b0ba
00000220: cf6e 6bba 2a9b 0a3b 3003 4c3a 7daa 043a
00000230: f10c e5ba 7a17 33bb 079a 3a3a 3906 e7ba
00000240: f19b faba 96b3 cb38 7b17 b5ba 0928 efb9
00000250: 1401 80ba 970e c5b9 d1cc 0abb 4057 5eba
00000260: 59bf b8b9 e4df 62b7 b0e3 b4b9 caed 63ba
00000270: a502 1fbb 382a 6ab9 3d9d 083a 5334 b5b9
00000280: a58f ceba 3dff 023b 0ca1 f83a 233d 1b3b
00000290: 57a0 e8ba ba31 913a 3128 3bbb 099c 7c3a
000002a0: 825f 2eb9 4347 2dbb 5575 07bb d3f1 693a
000002b0: c24a 31b9 b217 90b9 70df 1ebb 2c96 ce3a
000002c0: d4be 15bb fb5b 0eba f263 473a 678e d9ba
000002d0: 009c 88ba 8d77 9eba 8ad9 ceba 773e 103b
000002e0: afde a6ba b005 c13a 63e6 8cba d3fc 3abb
000002f0: 15a7 c5ba 1c11 6eba 0175 123b e388 9538
00000300: ff56 16bb b129 bfba e149 0b3a fa72 823a
00000310: dbdd 6f3a eacb b3ba 4c3d f83a fa1f cc3a
00000320: 200d b7ba 8ea9 0e3a f513 34bb d13e e9ba
00000330: 2f88 1dba 2586 a3ba 62c0 0aba 2835 ea3a
00000340: fddb ecb9 5db6 c737 3f21 acba afee 163b
00000350: d6cc a9ba 950b 7339 2d4a c43a 9e24 8fba
00000360: 991e ea39 ece8 d23a d019 ab3a 3976 eeba
00000370: e0e4 01ba aab0 0dbb c94c 9f39 a69b 53bb
00000380: c3eb fcb8 6c2c fd3a 2dcc 2cb8 003b 7137
00000390: 9752 bc3a ec66 d1ba b6b7 44ba f6da 033b
000003a0: 46fa 833a 784a 1d3a 890c 30bb 92b1 be37
000003b0: f5a1 df39 ab84 86ba fdda 15ba 5909 33bb
000003c0: 0645 1fba 4c31 423a 2c7d f3b9 cda3 063b
000003d0: 6d32 1bba 59af 193b 1dc9 4c38 c08e 01ba
000003e0: 039d d3b7 7958 07ba 753f 953a 4779 0d3b
000003f0: c4dc 743a 5c86 b63a 9f72 163b 3d1d 8d39

fc2.bias f4 [256]
-0.60764015 -0.0030744758 -0.0015893143 -0.0032799528 -0.0038542177 -0.002585767 -0.0067480695 -0.001480073
1.2574778 -0.00015399967 -0.0031486242 -0.0026596505 -0.06626168 -0.0015634793 -0.0031722537 -0.36394393
-0.004231248 -0.0049365414 -0.0019087022 -0.14504711 -0.0025658063 -0.0045021717 -0.002350452 -0.0040524923
-0.004314628 -0.34610477 -0.4137181 -0.004842166 -0.0026075377 -0.0032913908 -0.0031768242 -0.002575168
-0.60391754 -0.0037152162 -0.0001179256 0.97098917 -0.007601968 -0.0038641668 -0.002114835 -0.0064536743
-0.110140175 0.0007770162 -0.006776474 -0.0035787886 0.13059843 -0.0017524414 -0.43348643 -0.0044799508
-0.038157783 -0.0053736004 -0.0024721557 -0.003742138 -0.21245071 -0.0028892495 -0.0055303364 -0.00805874
-0.0036869505 -0.0010494828 -0.0019003785 -0.20127623 -0.0025120368 -0.0012287413 -0.36605266 -0.00097345223
-0.006270358 -0.004649612 -0.0026345716 -0.004143851 -0.0076301503 -0.32783994 1.0803019 -0.2792965
-0.0008848047 -0.0014791429 -0.43144304 -0.004002054 -0.09615817 -0.0030140753 -0.007378426 -0.002578854
-0.0041460795 0.8527955 -0.0044746306 0.0006815992 -0.0034871392 0.17737909 -0.2255122 -0.33282378
-0.0037258689 -0.2744016 -0.0036485733 -0.0030041626 -0.002168416 -0.0008699642 -0.00047950752 -0.42417806
-0.0021697541 -0.002285076 -0.5196932 -0.023216287 -0.13669278 -0.001518715 0.85911 -0.0019111636
-0.0013208439 -0.0040149763 -0.0033320407 -0.0031482 -0.0019653782 -0.00043181982 -0.0029274223 -0.0044835014
-0.0026130069 -0.0010897763 -0.14635754 -0.0014006019 0.4499865 -0.005726839 0.23827639 -0.0071487622
-0.0028625897 -0.0012637452 -0.00086385215 -0.52438116 -0.007362034 -0.38439354 -0.0038440072 -0.0029285306
0.08695728 -0.0016440894 -0.3262703 -0.120097995 -0.0033889194 -0.0048284847 -0.010256415 0.58560103
-0.0018477534 0.31795582 -0.0033857 -0.48404884 -0.005901328 -0.0027944515 -0.0018305153 -0.00763971
-0.0037424446 -0.00057109754 -0.0037376373 -0.0017855164 0.00032818376 -0.0014568154 -0.009629203 -0.0012961093
-0.0028787316 -0.0017434056 -0.0036172995 -0.014789165 -0.007923136 0.048058026 -0.50631964 -0.0065539386
-0.35389918 -0.1831339 -0.37531987 -0.0034593104 -0.0036588446 -0.3611851 -0.0023477208 -0.00074551033
0.6313469 -0.0022590386 -0.001051608 -0.0023404444 -0.22216368 -0.00010807026 -0.40197167 -0.0070338435
-0.572888 0.00016727285 -0.0068198866 0.0002617956 -0.26265657 -0.0028649082 -0.004809415 -0.0019936266
0.5802584 -0.004373353 0.31302685 -0.0027193378 -0.004339596 -0.0040202253 -0.09547872 -0.0052662627
-0.0045732018 0.32252583 -0.0021770976 -0.0041006883 -0.0011928896 -0.0122270025 -0.002588138 -0.0043187593
-0.0005709722 -0.002559708 -0.0028524112 0.20166343 -0.0018279295 -0.0025519768 -0.003618934 -0.06669466
-0.00264147 -0.00097236084 -0.010706949 -0.0027004248 -0.004064847 -0.0023365843 0.80318797 -0.0027969282
-0.003849125 -0.001368703 -0.0035863398 -0.0008165292 -0.0032032349 -0.0035510557 -0.43976262 -0.006993704
-0.007088398 -0.0048272805 -0.0035966157 -0.36101332 -0.36195838 -1.499928 -0.08314867 -0.008621406
-0.0033067307 -0.004127452 -0.5636015 -0.009779809 -0.0058211507 -1.0019631 -0.41010728 -0.0036228376
-0.24864447 -0.0043955944 -0.5335306 -0.014008394 0.25836784 -0.0013962754 -0.45387536 -0.0011711094
-0.45423287 -0.00029755995 -0.004123484 0.5909336 -0.0023918822 -0.008220215 -0.002361163 -0.0037976126
00000000: 4e8e 1bbf 257d 49bb 8a50 d0ba 7af4 56bb
00000010: 0b97 7cbb f975 29bb e91e ddbb 02ff c1ba
00000020: 08f5 a03f f97a 21b9 2659 4ebb 884d 2ebb
00000030: 34b4 87bd a9ed ccba 96e5 4fbb dc56 babe
00000040: 48a6 8abb b6c2 a1bb 6b2d faba 3b87 14be
00000050: 1627 28bb f486 93bb 0a0a 1abb c5ca 84bb
00000060: b961 8dbb a534 b1be dcd2 d3be 08ab 9ebb
00000070: 39e3 2abb 60b4 57bb 4432 50bb 26c4 28bb
00000080: 579a 1abf fc7a 73bb d34e f7b8 bf92 783f
00000090: ee19 f9bb f63d 7dbb 0b99 0abb 5879 d3bb
000000a0: 2c91 e1bd adb0 4b3a 2f0d debb 1c8a 6abb
000000b0: 98bb 053e 2db2 e5ba eff1 ddbe 8dcc 92bb
000000c0: 564b 1cbd 0715 b0bb e403 22bb a83e 75bb
000000d0: ae8c 59be 9059 3dbb d337 b5bb ce08 04bc
000000e0: c4a0 71bb cd8e 89ba 1f16 f9ba 5b1b 4ebe
000000f0: fca0 24bb b70d a1ba 416b bbbe 462f 7fba
00000100: 9377 cdbb c65b 98bb c7a8 2cbb 24c9 87bb
00000110: 5706 fabb a3da a7be 5547 8a3f f3ff 8ebe
00000120: 3df2 67ba cddf c1ba 1ae6 dcbe aa23 83bb
00000130: 93ee c4bd cb87 45bb b9c6 f1bb fe01 29bb
00000140: d6db 87bb ce50 5a3f ec9f 92bb 59ad 323a
00000150: 7d88 64bb dda2 353e acec 66be e167 aabe
00000160: b52d 74bb 5e7e 8cbe e71c 6fbb 7ce1 44bb
00000170: fc1b 0ebb 4f0e 64ba 6966 fbb9 de2d d9be
00000180: 6f32 0ebb 37c1 15bb 9d0a 05bf 1530 bebc
00000190: 31f9 0bbe 9f0f c7ba a2ee 5b3f 0280 faba
000001a0: 2b20 adba 1090 83bb 5e5e 5abb 0852 4ebb
000001b0: 93cd 00bb e065 e2b9 ffd9 3fbb 56ea 92bb
000001c0: fb3e 2bbb d3d6 8eba c0de 15be 6794 b7ba
000001d0: a164 e63e 35a8 bbbb bafe 733e 2a40 eabb
000001e0: 499a 3bbb 41a4 a5ba 2374 62ba d83d 06bf
000001f0: 383d f1bb 3bcf c4be bdeb 7bbb 97ec 3fbb
00000200: a916 b23d 7c7e d7ba e70c a7be f0f5 f5bd
00000210: a218 5ebb 4438 9ebb 860a 28bc f3e9 153f
00000220: 5130 f2ba 1bcb a23e 9fe2 5dbb 40d5 f7be
00000230: ed5f c1bb 1e23 37bb e7ed efba 8856 fabb
00000240: cd43 75bb b5b5 15ba 26f3 74bb fd07 eaba
00000250: 1410 ac39 9df2 beba cec3 1dbc 36e2 a9ba
00000260: 1aa9 3cbb fc82 e4ba 3710 6dbb 414e 72bc
00000270: 0bd0 01bc 7ed8 443d 2a9e 01bf 6cc2 d6bb
00000280: 4632 b5be 7487 3bbe ed29 c0be 99b5 62bb
00000290: 3ac9 6fbb 41ed b8be 38dc 19bb 5a6e 43ba
000002a0: f39f 213f 610c 14bb 1cd6 89ba 2462 19bb
000002b0: e07e 63be c7a3 e2b8 3bcf cdbe 287c e6bb
000002c0: caa8 12bf f765 2f39 5b79 dfbb 9c41 8939
000002d0: ec7a 86be 2fc1 3bbb 4c98 9dbb 81a7 02bb
000002e0: d18b 143f 584e 8fbb 0e45 a03e eb36 32bb
000002f0: 2b33 8ebb 18bc 83bb 598a c3bd 9d90 acbb
00000300: ccda 95bb 1b22 a53e a3ad 0ebb 115f 86bb
00000310: bc5a 9cba c453 48bc c09d 29bb 6184 8dbb
00000320: 4cad 15ba c6c0 27bb 85ef 3abb dc80 4e3e
00000330: 2397 efba 113f 27bb a32b 6dbb 3697 88bd
00000340: 831c 2dbb 08e6 7eba 336c 2fbc 9cf9 30bb
00000350: 6832 85bb 6121 19bb ba9d 4d3f ab4c 37bb
00000360: 9a41 7cbb 0d66 b3ba cc08 6bbb 590c 56ba
00000370: 5ded 51bb d4b8 68bb 9128 e1be 712b e5bb
00000380: cb45 e8bb 2a2e 9ebb 33b5 6bbb bdd6 b8be
00000390: 9c52 b9be a4fd bfbf da49 aabd cc40 0dbc
000003a0: bcb5 58bb 943f 87bb 3048 10bf 7e3b 20bc
000003b0: 5abf bebb 5440 80bf 95f9 d1be 216d 6dbb
000003c0: a89c 7ebe eb08 90bb 7695 08bf 7783 65bc
000003d0: ca48 843e 3a03 b7ba 5a62 e8be e97f 99ba
000003e0: 3691 e8be d201 9cb9 4a1e 87bb 6d47 173f
000003f0: 20c1 1cbb 15ae 06bc bebd 1abb 5ee1 78bb

fc3.weight f4 [5, 256]
-0.2745853 0.00034211748 0.0013954054 -0.00048689096 2.6663345e-05 0.0010451113 0.00128983 -0.00034425827
-0.23676471 -0.0006455534 0.00048651954 -0.0010840377 0.0062177647 -0.00031323943 -0.00021398683 -0.026185377
0.0010734086 0.0046786577 0.0005543638 -0.09273064 -0.002171304 -0.001892884 -0.0035324248 -0.0006310234
0.0013819116 -0.15286717 -0.03247268 -0.000103264 -0.00013508015 -0.0046415604 -0.0020024197 0.0014547232
0.038459264 -4.025798e-05 8.5199084e-05 -0.13758121 0.0038175648 -0.00087349734 0.000791165 -0.0004312031
-0.044422872 -0.0005047552 0.0027010117 0.0015244922 -0.008449594 0.0007665374 -0.06407881 0.0028801481
-0.012077379 -0.0028891563 0.0019979745 0.0007521 0.019627677 -0.00033184417 -0.004046158 0.006285682
0.00073719997 -0.00018195751 -0.001534931 0.011621717 -0.00019218035 0.00042411714 0.0072424836 -0.0006467781
0.0020221844 0.0017388841 0.00282683 -0.0013827622 0.0007283364 -0.04454173 0.28129753 0.002451918
9.443367e-05 0.0030226281 -0.026922395 -0.00044747494 -0.13825487 -0.0017072427 -0.0024320413 -0.0015601576
-0.0017921911 0.11683772 0.0038027936 0.00019162164 0.0018485879 -0.00096834963 -0.010584761 0.010816004
-0.0006640124 -0.0044689537 -0.00094377325 -0.0015739175 0.0030198814 -0.0010090615 -0.00062555406 -0.038536716
0.001222188 -0.0034643502 -0.10228996 0.015526657 -0.01456235 0.0031102465 0.19386302 0.001233836
-1.5524323e-05 -0.0011595561 -0.0032077525 -0.0014716735 0.0012934904 6.193499e-05 0.00025419044 0.0022495291
-0.0019172307 3.0937175e-05 -0.0049637435 0.0037185273 0.010626301 0.00089407474 0.09356761 -6.339991e-05
0.00095010456 0.006189267 0.00042667583 0.031809773 0.0036041627 -0.11019053 0.0015143834 0.0002413175
-0.040111274 0.0001044211 0.2510456 0.06488674 1.1864722e-05 0.0018243297 0.002754574 -0.02424215
-0.0006101236 0.086041786 -0.0010064603 0.010365292 -0.0068856436 0.0006045677 -0.0017754856 0.004450217
0.0033922438 0.00032672158 3.8452705e-05 8.938311e-05 -0.00047370407 0.0020378327 0.0060974597 -0.0016132686
-0.00093638996 -0.00032413154 -0.0016756159 -0.004551047 0.0025869547 -0.04770941 -0.044029824 -0.0012307717
0.012274789 -0.014137798 0.050593928 -0.0009867524 0.0012341205 0.007978349 -0.0024723755 -0.0013831117
0.062037792 -3.5589008e-05 0.0021017818 -0.0034704604 0.025382206 0.0006997759 -0.013113673 0.0003376609
-0.14421622 0.000823283 0.0058458005 -0.00027424397 -0.15699852 -0.00041089448 -0.005145803 0.00018750216
0.076041386 -0.0008181986 -0.008654851 0.0040796404 0.0007765067 -0.00023532903 0.044398975 0.0008294547
-0.0032090535 0.07411825 0.00050700275 -0.0010964078 0.00034935708 -0.00018184185 -0.0023246135 0.0010338726
8.803182e-05 -2.2391048e-05 -0.0022012969 -0.026421612 -4.2747007e-07 -0.00081219943 -0.0008417526 -0.052125845
-0.0012017565 -0.00045581924 0.0034384916 6.12244e-06 0.0012083937 -0.0005184705 0.08404404 0.0007629025
-0.00079066714 -0.0008535475 0.0024530867 -0.0011391762 0.0005278628 0.0021210557 -0.027234722 -0.0013140843
-0.0024150554 0.0002367662 0.0015910717 0.0083764605 0.050767656 -0.3724697 0.03265773 0.0021044759
-0.0014858611 -2.052514e-05 0.08420637 -0.00021810703 -0.00339105 -0.13153258 -0.008082462 0.000950329
-0.022778166 -0.00079127017 -0.040446997 0.009559542 0.2506533 0.00016525396 -0.03437129 -0.00064490986
-0.028363703 0.000181073 -2.7706787e-05 0.101721086 0.00064165535 -0.0056595444 -0.0015960995 -0.002140177
00000000: 7296 8cbe 3b5e b339 09e6 b63a 6645 ffb9
00000010: 19ab df37 1efc 883a 830f a93a 907d b4b9
00000020: 7372 72be 5b3a 29ba 8c13 ff39 4516 8eba
00000030: 64be cb3b 493a a4b9 a761 60b9 b782 d6bc
00000040: 9eb1 8c3a 6d4f 993b ba52 113a 90e9 bdbd
00000050: 704c 0ebb a61a f8ba 4180 67bb 436b 25ba
00000060: 4221 b53a 3689 1cbe 1302 05bd 708f d8b8
00000070: 4da4 0db9 3b18 98bb 073b 03bb 69ac be3a
00000080: 7687 1d3d adda 28b8 e9ac b238 17e2 0cbe
00000090: 1c30 7a3b 6afb 64ba 2f66 4f3a 1a13 e2b9
000000a0: c2f4 35bd 8c51 04ba 7503 313b 78d1 c73a
000000b0: 2a70 0abc 74f1 483a c03b 83bd dec0 3c3b
000000c0: 33e0 45bc 0058 3dbb 73f0 023b 9428 453a
000000d0: 39ca a03c 5ffb adb9 a295 84bb 1ff8 cd3b
000000e0: a740 413a d9cb 3eb9 bd2f c9ba 0469 3e3c
000000f0: 0584 49b9 0a5c de39 5b52 ed3b 8b8c 29ba
00000100: a086 043b 45eb e33a 5642 393b cd3d b5ba
00000110: d4ed 3e3a 6471 36bd 3b06 903e 5cb0 203b
00000120: b10a c638 4917 463b 5b8c dcbc 129b eab9
00000130: af92 0dbe 8fc5 dfba e262 1fbb 347e ccba
00000140: f4e7 eaba 9d48 ef3d 4a38 793b 0bee 4839
00000150: 514c f23a d8d8 7dba b56b 2dbc 9c35 313c
00000160: 1e11 2eba 4d70 92bb 8d67 77ba e84b ceba
00000170: 34e9 453b 7c42 84ba 39fc 23ba add8 1dbd
00000180: d331 a03a 270a 63bb 667d d1bd 8563 7e3c
00000190: ec96 6ebc 47d5 4b3b 0784 463e abb8 a13a
000001a0: 3b3a 82b7 3ffc 97ba 2839 52bb 2be5 c0ba
000001b0: 568a a93a 18e3 8138 dd44 8539 d66c 133b
000001c0: 964b fbba 8ac2 0138 e6a6 a2bb 89b2 733b
000001d0: f019 2e3c 5760 6a3a 60a0 bf3d 91f5 84b8
000001e0: 7010 793a 56cf ca3b 76b3 df39 f74a 023d
000001f0: d133 6c3b 93ab e1bd 467e c63a 2c0a 7d39
00000200: b84b 24bd a7fc da38 0d89 803e 57e3 843d
00000210: 980e 4737 591e ef3a 1586 343b 7997 c6bc
00000220: b4f0 1fba ad36 b03d 34eb 83ba 30d3 293c
00000230: f7a0 e1bb da7b 1e3a 69b7 e8ba 20d3 913b
00000240: 6850 5e3b d44b ab39 4748 2138 3173 bb38
00000250: 7c5b f8b9 298d 053b 33cd c73b 5074 d3ba
00000260: 1178 75ba 33f0 a9b9 57a0 dbba f320 95bb
00000270: e689 293b f16a 43bd 9e58 34bd d851 a1ba
00000280: 321c 493c 39a2 67bc 943b 4f3d eb55 81ba
00000290: 36c2 a13a 9fb7 023c 9407 22bb 8749 b5ba
000002a0: 571b 7e3d 6845 15b8 0cbe 093b aa70 63bb
000002b0: 58ee cf3c 2a71 373a bbda 56bc 1408 b139
000002c0: 6bad 13be 96d1 573a 218e bf3b 67c8 8fb9
000002d0: 38c4 20be 536d d7b9 209e a8bb 3a9c 4439
000002e0: 96bb 9b3d 617c 56ba 13cd 0dbc 81ae 853b
000002f0: 7c8e 4b3a a8c2 76b9 b3db 353d c36f 593a
00000300: fc4e 52bb 4fcb 973d 61e8 043a 57b5 8fba
00000310: ea29 b739 cdac 3eb9 8b58 18bb 0283 873a
00000320: b99d b838 69d4 bbb7 a243 10bb 2372 d8bc
00000330: 0a7f e5b4 c8e9 54ba 10a9 5cba e981 55bd
00000340: 4284 9dba 06fb eeb9 5158 613b 5c6f cd36
00000350: f762 9e3a f7e9 07ba 481f ac3d 85fd 473a
00000360: c644 4fba 9ac0 5fba f7c3 203b 6950 95ba
00000370: 4660 0a3a 6901 0b3b 5a1b dfbc 5a3d acba
00000380: e845 1ebb 7144 7839 828b d03a 6c3d 093c
00000390: bff1 4f3d 59b4 bebe 1dc4 053d 3feb 093b
000003a0: 3ac1 c2ba 672d acb7 6474 ac3d a9b3 64b9
000003b0: 613c 5ebb 7ab0 06be 4d6c 04bc 801f 793a
000003c0: 4799 babc 3e6d 4fba c0ab 25bd a09f 1c3c
000003d0: a155 803e 0648 2d39 e9c8 0cbd 2b0f 29ba
000003e0: ff5a e8bc 6ade 3d39 df6b e8b7 2553 d03d
000003f0: c334 283a b373 b9bb 3634 d1ba 3642 0cbb

fc3.bias f4 [5]
0.51134694 -0.009156644 0.1784704 -0.0011570742 0.0004897093
00000000: a2e7 023f c005 16bc f2c0 363e f8a8 97ba
00000010: d65f 003a
